…
екторами. PIL — инструмент для работы с изображениями. FoolBox — библиотека для генерации adversarial-примеров. Первое, что необходимо сделать – это, естественно, загрузить модель нейронной сети в память нашей программы и посмотреть информацию о модели. model = keras.models.load_model( "KerasModel.h5" ) # Загружаем модель model.summary() # Выводим информацию о модели model.input # Выводим информацию о том, какие данные должны поступать на вход НС На выходе мы получим следующее: Layer (type) Output Shape Param # =================================================================conv2d_1 (Conv2D) (None, 26, 26, 32) 320 _________________________________________________________________conv2d_2 (Conv2D) (None, 26, 26, 64) 18496 _________________________________________________________________max_pooling2d_1 (MaxPooling2 (None, 13, 13, 64) 0 _________________________________________________________________dropout_1 (Dropout) (None, 13, 13, 64) 0 _________________________________________________________________conv2d_3 (Conv2D) (None, 13, 13, 64) 36928 _________________________________________________________________conv2d_4 (Conv2D) (None, 13, 13, 128) 73856 _________________________________________________________________max_pooling2d_2 (MaxPooling2 (None, 6, 6, 128) 0 _________________________________________________________________flatten_1 (Flatten) (None, 4608) 0 _________________________________________________________________dense_1 (Dense) (None, 256) 1179904 _________________________________________________________________dense_2 (Dense) (None, 10) 2570 =================================================================Total params: 1,312,074Trainable params: 1,312,074Non-trainable params: 0_________________________________________________________________<tf.Tensor 'conv2d_1_input_1:0' shape=(?, 28, 28, 1) dtype=float32> Какую информацию отсюда можно вынести? Модель на вход(conv2d_1 слой) принимает объект размерностью ?x28x28x1, где "?" – количест
…
